tflite_model.tflite (tflite, 19596 bytes, 12 tensors)

sequential/lstm/Read_2/ReadVariableOp f4 [32]
000000 ad 27 f2 3e 08 80 7a 3e 40 6b 33 bf d1 5f 00 bf
       0.47295895 0.24462903 -0.70085526 -0.50146204
000010 4b ea ea be ee 3a 9e bf a2 20 e7 bd 8d 68 97 3d
       -0.45881876 -1.2361734 -0.11285521 0.07392988
000020 00 00 80 3f 00 00 80 3f 00 00 80 3f 00 00 80 3f
       1.0 1.0 1.0 1.0
000030 00 00 80 3f 00 00 80 3f 00 00 80 3f 00 00 80 3f
       1.0 1.0 1.0 1.0
000040 ec 05 6c bf 8f 5c 98 bf 14 72 f6 3e 09 17 0b bf
       -0.92196536 -1.1903247 0.4813391 -0.54332024
000050 e9 ff 01 3f a7 58 ce 3b e3 7d ef 3e 79 66 47 3f
       0.5078111 0.0062971893 0.4677573 0.77890736
000060 cf 0e ba 3e a1 d2 73 3e 1c db 1a bf ea 62 19 bf
       0.36339423 0.23810817 -0.60490584 -0.59916556
000070 84 e4 a3 be 9b 42 68 bf 1b 30 2d be a2 3e a6 3f
       -0.3201028 -0.9072663 -0.16912882 1.2987864

sequential/lstm_1/Read_2/ReadVariableOp f4 [16]
000000 87 9c 1e 3f 94 4e 27 3f aa b8 dc 3e 60 f9 08 3f
       0.6195759 0.65354276 0.43109637 0.53505516
000010 00 00 80 3f 00 00 80 3f 00 00 80 3f 00 00 80 3f
       1.0 1.0 1.0 1.0
000020 73 43 e7 be c7 bd ae 3e 74 c7 ee bd 3c 59 83 be
       -0.45168647 0.34129164 -0.116591364 -0.25654018
000030 61 af 19 3f a1 8b 0b 3f b7 df cc 3e 85 48 06 3f
       0.6003323 0.5450993 0.4001443 0.52454406

sequential/dense/BiasAdd/ReadVariableOp f4 [2]
000000 24 48 1c be f0 0c 67 3f
       -0.15261894 0.90254116

sequential/dense_1/BiasAdd/ReadVariableOp f4 [2]
000000 a2 be 58 40 c7 c3 57 c0
       3.3866353 -3.3713243

sequential/dense/MatMul f4 [2, 4]
000000 f4 14 87 be 31 4a c1 be 13 cd 2c 3f f0 0d 30 bf
       -0.26383173 -0.37751916 0.6750042 -0.68771267
000010 83 c9 e1 bf 1c 63 c7 3f 39 0d db bf 5f 37 00 c0
       -1.7639621 1.5577121 -1.711341 -2.0033796

sequential/dense_1/MatMul f4 [2, 2]
000000 52 c1 0d bd bc 96 85 bf 76 1d 45 3d 1e 77 86 3f
       -0.034608193 -1.0436625 0.0481238 1.0505102

sequential/lstm/Read_2/ReadVariableOp1 f4 [32]
000000 ad 27 f2 3e 08 80 7a 3e 40 6b 33 bf d1 5f 00 bf
       0.47295895 0.24462903 -0.70085526 -0.50146204
000010 4b ea ea be ee 3a 9e bf a2 20 e7 bd 8d 68 97 3d
       -0.45881876 -1.2361734 -0.11285521 0.07392988
000020 00 00 80 3f 00 00 80 3f 00 00 80 3f 00 00 80 3f
       1.0 1.0 1.0 1.0
000030 00 00 80 3f 00 00 80 3f 00 00 80 3f 00 00 80 3f
       1.0 1.0 1.0 1.0
000040 ec 05 6c bf 8f 5c 98 bf 14 72 f6 3e 09 17 0b bf
       -0.92196536 -1.1903247 0.4813391 -0.54332024
000050 e9 ff 01 3f a7 58 ce 3b e3 7d ef 3e 79 66 47 3f
       0.5078111 0.0062971893 0.4677573 0.77890736
000060 cf 0e ba 3e a1 d2 73 3e 1c db 1a bf ea 62 19 bf
       0.36339423 0.23810817 -0.60490584 -0.59916556
000070 84 e4 a3 be 9b 42 68 bf 1b 30 2d be a2 3e a6 3f
       -0.3201028 -0.9072663 -0.16912882 1.2987864

while/MatMul_1 f4 [32, 8]
000000 80 b5 bd bc 2b d0 0a 3e dd 6f e2 3d 8f ac a6 3b
       -0.023157835 0.13555972 0.110564925 0.0050864886
000010 48 0d 44 3c a2 0a 35 be c0 1c b9 be 56 a9 09 be
       0.011966057 -0.17679837 -0.36154747 -0.13443503
000020 33 6e 03 be ec 33 e9 3d 10 46 04 be e6 ee 1e bd
       -0.12835006 0.113868564 -0.12917352 -0.03880205
000030 98 36 0b be 6e 35 16 be 06 0e 6c 3e 8c 91 67 be
       -0.13595045 -0.1466882 0.23052225 -0.22614115
000040 d9 56 02 3d 8e 95 bd bd b2 73 90 be fa 9d bf 3c
       0.031821106 -0.09257041 -0.2821327 0.023390759
000050 18 3b 94 39 45 2b 12 3d e9 20 8f 3d e0 72 05 be
       0.00028272788 0.035685796 0.06988699 -0.13032103
000060 20 90 06 be 60 55 a2 be 47 b3 7f 3d 44 64 aa bd
       -0.13140917 -0.3170576 0.06242683 -0.083199054
000070 2f 64 d8 bd a2 28 60 be c8 c1 ed 3d a6 d6 03 3c
       -0.105659835 -0.218905 0.116092265 0.008046782
000080 bb bc 2a be a9 be fd 3d 82 8d 0a be a5 8f 34 be
       -0.16673557 0.12389881 -0.13530543 -0.17632921
000090 13 a6 0d 3e 2b 13 33 be 42 27 05 3d 9d 36 1d bd
       0.13832884 -0.17487781 0.032508142 -0.03838216
0000a0 ab 74 7f be 37 91 ab 3d 38 60 47 be 2d 77 26 3e
       -0.24946849 0.08377307 -0.19470298 0.162564
0000b0 4c c3 ba 3e 2c 5a 58 be 4e e1 c8 3e cc 89 8b 3d
       0.36477125 -0.21128148 0.39234394 0.06813392
0000c0 6a 68 76 bd 0e 91 43 3e c1 ff b3 be 51 09 de 3b
       -0.06015817 0.19098303 -0.35156062 0.006776013
0000d0 69 7c 5a be a8 17 cb 3e 14 0d d8 bc 07 c3 ab be
       -0.21336521 0.39666486 -0.026373424 -0.33547232
0000e0 88 b1 f8 bc 34 4d 8b bd 58 18 97 be f6 9c 58 3c
       -0.030358091 -0.06801835 -0.2951076 0.013221016
0000f0 46 2f 42 be 93 b6 db bd 03 ab 08 3e 79 4a 96 3e
       -0.18963346 -0.10728183 0.13346486 0.29353693
000100 69 e9 c1 3d c7 49 21 be 65 6f 94 be 0e c4 e1 3d
       0.094683476 -0.157508 -0.28991237 0.110237226
000110 b5 7c a5 be 24 55 b7 bd 80 94 2a be 65 89 be 3e
       -0.32321706 -0.08951786 -0.16658211 0.372142
000120 db 82 4e bd ae 0b 1a 3e f8 df a7 be 75 24 e6 bd
       -0.050417762 0.15043518 -0.32788062 -0.112374224
000130 97 dc 30 3d ed e3 18 3d 2f d6 3c be f9 7e 09 3e
       0.04317912 0.037326742 -0.1844108 0.13427342
000140 50 37 48 bd ca 29 ec 3b 45 7f f8 bd 14 64 85 3e
       -0.048880875 0.00720713 -0.1213365 0.26052916
000150 2e 44 c7 bd 3d 41 e0 3e 01 90 1f 3e ee 90 c1 bd
       -0.09729801 0.43799773 0.15582277 -0.09451471
000160 75 3f e3 3d 35 c2 09 3e 2d c0 1c 3d ac 31 12 3e
       0.11096088 0.1345299 0.03826921 0.14276761
000170 2c c6 68 3e 40 3a 14 3d be 18 bb 3d 26 00 2e be
       0.22731847 0.036188364 0.091355786 -0.16992244
000180 4a ca da 3c ac c3 fb bd c0 a1 fe bc 3d 4a 01 bd
       0.026707787 -0.12293181 -0.031082988 -0.03156494
000190 f5 da 8e bd 73 6e f0 bd 71 96 b2 bd 13 57 23 3d
       -0.069753565 -0.117398165 -0.08720101 0.039877962
0001a0 f3 bd 63 be b8 9d 2d be c0 70 bf bd d5 5f ae bc
       -0.22240429 -0.16954696 -0.09347677 -0.02128593
0001b0 35 43 ac 3d 92 52 b8 bc a0 8d 83 be c0 32 c1 be
       0.08411256 -0.02250031 -0.2569399 -0.37734032
0001c0 fa b8 98 be d1 cf 16 3e b2 ff d2 3d 28 36 ce bd
       -0.29828626 0.14727713 0.10302676 -0.10068923
0001d0 09 df 7d bd 99 3d aa 3e e2 4c 19 be 5b 61 6c 3e
       -0.06198028 0.3325012 -0.14970735 0.23084013
0001e0 9e 7f 2b be 57 96 98 3c ed 37 14 3e 05 18 9c 3e
       -0.16747901 0.018626375 0.14474459 0.30487075
0001f0 f5 ee f4 3d 2e 89 89 bc 38 3b e1 bd 9f 04 d4 3d
       0.1195964 -0.016789045 -0.10997623 0.10352444
000200 8f d6 8f 3e 80 ad 82 3e fb 65 97 be 6a 46 57 be
       0.28093383 0.25522995 -0.29569992 -0.21022955
000210 8a b8 bd bd f1 3b ed bd 23 fa 9c 3d c6 95 a9 3d
       -0.09263714 -0.115836985 0.07664897 0.0828052
000220 b2 d9 30 3e cc 6d 6f be 5c e6 bf bc 72 76 5d 3e
       0.17270544 -0.23381728 -0.023425274 0.21627215
000230 15 f8 c5 3e a3 ee a8 3e c2 13 80 bc aa 4a 49 3e
       0.38665834 0.32994565 -0.015634421 0.19657388
000240 c4 49 19 bc 68 1b 2d be b6 17 9e 3d 5f 85 8b 3e
       -0.009355966 -0.16904986 0.07719366 0.27250192
000250 b7 bc 9e be 1b 87 4c be 68 18 1e be 72 e4 d7 bd
       -0.31003353 -0.19973414 -0.15438998 -0.10541619
000260 4e e0 69 be 62 d9 1a 3e c7 49 ea bd fa bb 75 3e
       -0.22839472 0.15121987 -0.11439853 0.23997489
000270 ba ac c3 bd 6e 95 06 be 37 be ab bd 24 9e f1 bd
       -0.09554429 -0.1314294 -0.0838589 -0.11797741
000280 60 c0 c1 be 9e f4 44 be 09 6c 0a 3e 52 52 39 be
       -0.37842083 -0.19233939 0.13517775 -0.18097809
000290 2d 56 78 bd 8c 7b 0b 3e 1b d4 57 3e 30 6c 41 3e
       -0.06062906 0.13621348 0.21077006 0.18888927
0002a0 2b 0e 50 bb 4e cd 8c 3e 40 a6 51 3d 82 a8 82 3e
       -0.0031746726 0.27500385 0.05118394 0.25519186
0002b0 ac e3 38 be d3 ef c6 bc a6 3e ec 3c 93 12 5e bc
       -0.180556 -0.024284279 0.028838467 -0.013554233
0002c0 b2 c1 21 be 38 5d 69 3e ce bc 4d bd 88 98 5e bd
       -0.15796545 0.22789466 -0.050228886 -0.054344684
0002d0 de 77 7b 3e af 7b 84 be 18 65 92 3b 94 80 b0 3d
       0.24557444 -0.25875613 0.0044676177 0.08618274
0002e0 80 69 04 be 3b 7b 44 be d1 15 43 bd 42 5f 0a be
       -0.1293087 -0.19187634 -0.047628228 -0.135129
0002f0 f1 7b ef 3d 38 ec 83 3b 0b 98 8d be 4a 86 92 be
       0.11693562 0.004025962 -0.27655062 -0.2861808
000300 b2 16 a0 3e 3c fd 9a be 49 64 7a be d7 ff 79 3e
       0.31267315 -0.30271327 -0.24452318 0.24414001
000310 4f 59 cd 3d 89 ee 00 be 88 56 da bc 3a de 9f bd
       0.100268 -0.12590994 -0.02665259 -0.07806058
000320 99 8e e1 bb fa df 8e bd cd 14 d7 bd 39 a9 c0 3b
       -0.006883454 -0.06976314 -0.10502014 0.005879548
000330 12 16 fd 3d 7f 7c 90 3d 16 84 79 3e 91 81 e3 bd
       0.12357725 0.07054996 0.24366793 -0.11108697
000340 e0 68 de 3d b5 65 96 3e 21 77 ec bd 62 f2 40 3d
       0.10859847 0.2937447 -0.115461595 0.047106154
000350 9b 52 19 3e b6 57 30 bd bc a7 26 be e4 55 18 3d
       0.14972918 -0.043052398 -0.16274923 0.037191287
000360 3a e6 1b be ad b3 a2 bd fe 01 f6 bd 73 c6 b3 be
       -0.15224543 -0.07944427 -0.12012099 -0.35112342
000370 6f 14 69 bd 3d 12 24 3d 71 53 b0 bd 35 d7 22 3d
       -0.056904253 0.040056456 -0.08609665 0.03975602
000380 07 17 5f be e4 bb 4c bc 32 b2 5f be da 8a 37 3e
       -0.21786128 -0.0124959685 -0.2184532 0.17924061
000390 dd 64 80 3e c0 61 b1 3a de e9 c7 be 27 8c 7b 3e
       0.25076953 0.001353316 -0.39045614 0.24565183
0003a0 6a 56 8b 3d 7e 48 b8 bd fd 3f 16 be 6d 8e 87 be
       0.068035915 -0.08998202 -0.14672847 -0.2647585
0003b0 76 be f4 3d 7c e7 35 3e cd 9a b6 bd 5a c3 7c 3d
       0.1195039 0.17764086 -0.08916245 0.06170974
0003c0 1b b4 53 3e ff fe 9a 3e 4f 8a 86 3e 0e 3d c6 bc
       0.20674174 0.30272672 0.26277396 -0.024199035
0003d0 b7 a3 82 bd 67 fd 79 3d 37 e8 9a bd f2 f2 04 3e
       -0.063788824 0.06103268 -0.07563823 0.12983301
0003e0 d1 7d a4 be 70 90 5f 3d 22 e8 3a bd 43 ff 95 3e
       -0.3212724 0.054581106 -0.045631535 0.29296312
0003f0 39 79 3a be 5a 04 0a 3d d2 1e 5d 3d c0 a8 bc 3d
       -0.18210305 0.033695556 0.05398447 0.09211874

while/MatMul f4 [32, 7]
000000 ce 08 be 3d ea 4f 74 3e 2b 11 c4 3e 56 b5 d6 3d
       0.09279023 0.2385861 0.38294348 0.10483806
000010 4c 4b 7b be 35 04 76 bc 4e 8c 4d 3e cd 7a 88 be
       -0.24540442 -0.0150156515 0.20073053 -0.2665619
000020 77 5c b9 3e c3 89 0d be e1 a6 65 bd 77 c8 37 bd
       0.36203358 -0.13822083 -0.05606735 -0.044868913
000030 62 de 41 3f e9 28 c9 bd 2e 70 1f bf b0 4a 58 3e
       0.75729954 -0.09822256 -0.6228055 0.21122241
000040 5a 12 e0 3d d4 73 ba bd 4d 51 2c bc 47 c8 98 bb
       0.10941 -0.09104124 -0.0105174305 -0.004662547
000050 41 c2 d0 3d c1 30 2a 3d e2 13 d4 3e db db c1 be
       0.10193301 0.0415504 0.4142142 -0.3786305
000060 e1 c8 11 3d 9f 2f 05 3c 48 c3 d8 3c db 38 fb bd
       0.035591964 0.00812903 0.026460305 -0.12266704
000070 fe fc a8 be e4 6b dd 3c 4d c1 36 be 90 ec 5f be
       -0.33005518 0.027028985 -0.17847176 -0.21867585
000080 95 6a 1e 3e a3 48 b8 3b 2c 88 36 be 62 70 88 be
       0.15470345 0.0056238933 -0.17825383 -0.2664824
000090 dd c2 99 be 12 d4 02 bf 05 5a dc bd c0 65 1e 3f
       -0.3003148 -0.51104844 -0.10759357 0.6187401
0000a0 19 f8 01 3e a1 45 e8 3c 5e 5e 13 bf 16 9e f7 3c
       0.12692298 0.028353514 -0.5756587 0.030226748
0000b0 f3 13 76 bc 62 cc a0 bb 80 3a 06 be a4 de 4d bf
       -0.015019405 -0.004907177 -0.13108253 -0.8041785
0000c0 7f 47 d8 bc f3 c7 11 3f a2 ba 60 3e aa f2 3c bd
       -0.02640128 0.56945723 0.21946195 -0.04612986
0000d0 c5 94 c2 bc 08 17 6f bd 78 fa 72 3f 79 d6 69 be
       -0.02375258 -0.058371574 0.94913435 -0.22835721
0000e0 4e cf 26 3e 0d 3c 4d be be fe 9c be 88 bf 99 3d
       0.16290018 -0.20042439 -0.30663103 0.07507235
0000f0 93 a3 af 3e 4e d6 35 3e b8 cc 3c 3d 3e 1a 09 3e
       0.34304485 0.17757532 0.046093673 0.13388917
000100 40 46 b4 bd b1 66 c5 3e 7e 31 5d be b6 62 3a be
       -0.088024616 0.3855491 -0.21600911 -0.18201718
000110 11 fc 81 be 2a 19 9a be 48 cc ec bd 4c ac b5 3d
       -0.25387624 -0.30097324 -0.11562401 0.08870754
000120 46 a1 83 be e8 f7 3a bd bf df 8a 3e 4d 6a bc 3e
       -0.2570898 -0.045646578 0.2712383 0.3679985
000130 3d 53 92 3e 30 ef 7a be 68 0e 0b 3d b6 e2 07 3e
       0.2857913 -0.24505305 0.033949286 0.13270077
000140 50 4f 64 bd 60 cc f4 bd 56 39 79 3e 70 e7 a0 bc
       -0.0557397 -0.11953044 0.24338278 -0.019641608
000150 00 b8 84 bd 36 19 03 3e 4c 12 c2 bd 1c 1b e9 3d
       -0.06480408 0.12802586 -0.09476146 0.11382124
000160 1e 59 5f 3e 30 3b ab 3d 70 fd 83 be 30 a4 8e be
       0.2181134 0.083608985 -0.25779295 -0.2785964
000170 d0 f0 a4 3c 22 9a 24 3e f6 db 3f 3e 40 60 d2 bc
       0.02013436 0.16074422 0.18736252 -0.025680661
000180 03 28 63 be b9 49 a5 3e 49 07 b1 3e 0d de c3 3e
       -0.22183232 0.32282808 0.3457587 0.3825535
000190 3c 8f 0f be 10 7d 85 bc 90 df 9e bc 7b 27 c8 3e
       -0.14019483 -0.016294986 -0.019393712 0.3909262
0001a0 88 2c a6 bd d4 d3 ce bd 00 a1 c6 3c 41 01 ba 3e
       -0.081139624 -0.10098997 0.024246693 0.36329082
0001b0 1e 06 8c be 2c a8 93 be 58 f5 29 bd cc 66 84 bd
       -0.27348417 -0.28839242 -0.041493744 -0.064649194
0001c0 15 f1 b6 3e 46 c4 b4 be f5 00 70 3e f2 2d 26 3e
       0.35730806 -0.35305995 0.23437865 0.16228464
0001d0 a2 08 89 3d 93 f4 11 3e 96 1d 8a bd fc 76 54 3e
       0.066911 0.14253454 -0.06743924 0.20748514
0001e0 52 3b 0d be 22 72 96 bd 8d 10 67 be fb 1e 7e 3d
       -0.1379216 -0.07345988 -0.22564907 0.062041264
0001f0 61 83 1e be 5f c0 71 3d 7d 42 35 bf 30 ce bf 3d
       -0.15479805 0.05902135 -0.7080458 0.09365499
000200 72 e2 a0 3e 28 4d 7b 3c 8b 48 43 bd 2a a8 0d 3e
       0.31422764 0.01533822 -0.047676604 0.13833681
000210 b5 d9 30 3e af 2d 80 bd aa ad 9b bd 5e a4 20 3e
       0.17270549 -0.062587135 -0.07601483 0.15687701
000220 1e ed 4d be a5 42 1f bd 0a a5 8f be a5 56 9a 3d
       -0.20109984 -0.038881917 -0.28055602 0.075360574
000230 f9 39 18 bf e4 34 84 3e 88 a5 da 3d 9e be 86 be
       -0.5946346 0.25821602 0.10676104 -0.26317304
000240 63 08 07 3e db 49 f4 3c 97 9b 3f 3c 71 36 fc 3e
       0.13186793 0.029820373 0.01169481 0.49260285
000250 cc a0 21 be 36 29 04 bd a8 d9 56 3e 4a a9 c2 bd
       -0.15783995 -0.032265864 0.20981467 -0.095049456
000260 0f d7 38 3e fb 64 1e be 6a 86 27 bf c6 e2 1c 3e
       0.18050788 -0.15468208 -0.65439475 0.15320882
000270 ef 08 af 3d dc ce f7 3d c5 72 7f 3d 31 a2 2a bf
       0.08546626 0.12100002 0.062365312 -0.66653734
000280 0f a5 66 bd b5 b6 f4 be ab fe 37 bc 63 88 59 3d
       -0.056309756 -0.47795644 -0.011230151 0.053108584
000290 d8 50 f1 3d 4d 75 fe 3d 44 a8 81 be 75 7c b3 3d
       0.11782998 0.12424717 -0.2532369 0.08763973
0002a0 51 6f c4 3e 74 c2 15 3f 28 a4 76 3e b9 4c 9a 3d
       0.38366178 0.58499837 0.24086058 0.07534165
0002b0 53 80 d7 bc 27 c5 ee bd 4b ec 46 bd a7 0d a3 bc
       -0.026306307 -0.116586976 -0.04856519 -0.01990397
0002c0 af 3f de 3e 18 38 93 be bf 79 49 3d 80 e3 86 bd
       0.43407962 -0.28753734 0.04918837 -0.06586361
0002d0 87 f9 c2 3e f4 bc 38 be 16 14 f5 be f1 fb 5f 3e
       0.38081 -0.1804083 -0.47866887 0.21873452
0002e0 17 da 66 be 33 f2 75 be 64 04 3d be b6 35 9a be
       -0.22544132 -0.24018173 -0.18458706 -0.30119103
0002f0 64 00 60 3e d3 34 a6 be 98 85 ef 3d 74 19 8b bd
       0.21875149 -0.32462177 0.11695403 -0.06791964
000300 96 c2 c3 3e 93 1b af 3d 57 c9 e3 3e 91 18 b0 bd
       0.38234395 0.08550181 0.44489548 -0.08598436
000310 0a d6 e5 be 4b f1 06 3f 0c db 54 3e 6f 66 5d bb
       -0.4488986 0.52711934 0.20786685 -0.003378298
000320 90 1c 55 3d 46 ff ed bd 93 c1 9c 3d be ff 97 bd
       0.052029192 -0.11620955 0.07654109 -0.07421826
000330 cf fa c9 be 1c 48 2b bf 0d b6 f0 3d f2 f9 b6 3e
       -0.39449164 -0.66906905 0.117534734 0.35737568
000340 1c f5 b7 be d1 4e 22 3e 9c 0b 4e be d3 f0 94 3d
       -0.3592919 0.15850379 -0.20121616 0.07272496
000350 e3 10 79 be 28 38 8e 3e c8 44 a9 3d 5b 25 03 bf
       -0.24322848 0.2777722 0.08265072 -0.51228875
000360 2f cb 0d bd dd c7 84 3f 15 60 c2 be e4 9c 59 3f
       -0.0346176 1.0373493 -0.3796393 0.8500502
000370 5b 41 32 bf c3 e7 ed 3e db af aa be 98 95 53 3f
       -0.69630975 0.46465883 -0.33337292 0.82650137

sequential/lstm_1/Read_2/ReadVariableOp1 f4 [16]
000000 87 9c 1e 3f 94 4e 27 3f aa b8 dc 3e 60 f9 08 3f
       0.6195759 0.65354276 0.43109637 0.53505516
000010 00 00 80 3f 00 00 80 3f 00 00 80 3f 00 00 80 3f
       1.0 1.0 1.0 1.0
000020 73 43 e7 be c7 bd ae 3e 74 c7 ee bd 3c 59 83 be
       -0.45168647 0.34129164 -0.116591364 -0.25654018
000030 61 af 19 3f a1 8b 0b 3f b7 df cc 3e 85 48 06 3f
       0.6003323 0.5450993 0.4001443 0.52454406

while/MatMul_12 f4 [16, 4]
000000 c0 73 a8 bd 42 43 ba 3d 95 a2 0f bf 7b 27 c3 3e
       -0.082252026 0.0909486 -0.56107455 0.3811606
000010 d4 e9 f8 bd 96 68 5a be 96 47 0e be b0 a3 d1 bd
       -0.12153974 -0.21328959 -0.13894495 -0.10236299
000020 89 40 b7 bd 6f 90 13 3d 0c 3f 82 3d 78 aa 98 3e
       -0.08947856 0.036026414 0.063596815 0.29817557
000030 73 9c fa be 36 df 9b be 6a 9e 3a 3e f1 1b 2c be
       -0.48947486 -0.30443734 0.18224493 -0.16807534
000040 27 a7 95 3d 77 2b dc bd 52 de 1b 3e 14 cc 94 3e
       0.073072724 -0.10750478 0.15221527 0.2906195
000050 35 95 6a be db f9 b1 be 67 0d cb be 56 1c c6 3c
       -0.2290848 -0.34760937 -0.39658663 0.024183434
000060 96 e0 8d be f0 0d 88 3b e0 c4 2c 3e 0c 49 ca bc
       -0.27710408 0.004152052 0.16871977 -0.024693035
000070 6d 4b 00 3e f4 55 8b be c4 0c 78 3e d4 45 07 3f
       0.12528773 -0.27214015 0.2422362 0.52840924
000080 02 58 82 3e c8 80 bb be c7 ff 80 be 3d fa b4 3d
       0.2545777 -0.3662169 -0.25195143 0.08836792
000090 3d 39 4e be 54 26 e2 3e d0 ed 64 bc 56 ff cc 3e
       -0.20139022 0.44169867 -0.013972715 0.40038556
0000a0 8c 6a d4 3e 3b 31 52 be 1f 9c 40 be c3 d0 1e 3e
       0.4148754 -0.20526592 -0.18809555 0.15509324
0000b0 27 f8 54 be 1d 95 b3 3e 87 fe e9 be 54 b8 cc bd
       -0.20797788 0.35074702 -0.45702 -0.09996095
0000c0 9f 95 33 be 82 08 26 bd 96 64 18 3d b0 c6 4e 3e
       -0.17537545 -0.040535457 0.0372053 0.20192981
0000d0 02 04 5d bd f4 ff 85 be a4 d4 0a be 96 56 0c be
       -0.0539589 -0.2617184 -0.13557678 -0.13704905
0000e0 e1 ad 0e be ce ef 76 3d e6 fc 37 3e 68 ca 7d 3e
       -0.13933517 0.06028729 0.17967567 0.24784243
0000f0 d2 cc e8 3e ee aa 8e 3e 60 ba 05 3d b4 62 4a be
       0.45468765 0.27864784 0.032648444 -0.19764215

while/MatMul3 f4 [16, 8]
000000 3c 3a 1b bf c0 1d d1 be dd fe 93 3f 63 e5 51 bf
       -0.60635734 -0.4084301 1.1562153 -0.8199064
000010 58 81 f3 3e ba 19 b9 be f5 08 19 3f 49 3c 6d bf
       0.4755962 -0.3615244 0.5977929 -0.9267011
000020 15 47 4e bf 2f ca 32 bf a6 60 5f 3f 3e c5 6b be
       -0.8057721 -0.6983976 0.8725685 -0.2302446
000030 96 a1 1c 3e ba 8d 8f bf b8 99 83 3f 35 d4 cf 3e
       0.15296015 -1.1215127 1.0281286 0.4059159
000040 eb aa 02 bf 13 8b 91 be e4 5f de 3e 11 9d c2 be
       -0.5104205 -0.28426418 0.43432534 -0.38010457
000050 f7 79 8a 3f b6 b8 82 bf 68 dc 09 3f fc 73 62 bf
       1.0818471 -1.0212619 0.5385194 -0.8845823
000060 00 2c 20 bf 55 f0 4b bf a2 e7 15 3f 14 27 62 bf
       -0.6256714 -0.7966359 0.5855657 -0.8834088
000070 a4 9b 8d 3e 76 b7 7f bf 79 cc c5 3d 69 88 5d bf
       0.27657807 -0.99889314 0.09658141 -0.8653627
000080 10 80 c7 3d 30 fe ae 3d 30 04 09 3e 40 59 5c 3d
       0.09741223 0.08544576 0.13380504 0.053796053
000090 c4 f6 95 3e 18 64 88 3e 38 36 8d be ac 38 a8 be
       0.2928983 0.26638865 -0.27580428 -0.32855737
0000a0 88 15 72 3e 9c 3a f5 be dc b6 d7 3e 08 21 33 3e
       0.23641026 -0.47896278 0.42131698 0.17493069
0000b0 a0 68 20 be e0 e7 a8 3e 60 a4 f6 3e 80 9d 22 bc
       -0.15664911 0.32989407 0.48172283 -0.009925246
0000c0 04 f6 e0 be 40 2d f2 3c 00 17 df 3e c0 55 06 3e
       -0.43937695 0.029562593 0.43572235 0.13118649
0000d0 60 cf 7f bd 90 57 a5 3e 00 d4 b7 3c 50 5f f1 3e
       -0.062453628 0.32293367 0.022439957 0.4714303
0000e0 90 a1 f4 be 40 03 ce 3d 58 6a 20 be 88 0a 6e be
       -0.47779512 0.10059214 -0.15665567 -0.23246205
0000f0 44 20 f4 be 28 d6 cb be a0 f2 c8 3e 44 80 93 3e
       -0.47680867 -0.39811826 0.39247608 0.28808796
000100 95 94 1c 3f ca a2 e5 3e 5d 27 84 be 1d e7 42 3f
       0.6116422 0.4485076 -0.25811282 0.761339
000110 02 57 e0 3b 2f 11 54 3e 17 c0 48 3d 82 eb 8e bf
       0.0068463096 0.2070968 0.049011316 -1.1165621
000120 3f e1 5d bf d3 f6 71 bf 36 41 ae 3e 9d 9a af bc
       -0.86671823 -0.9451725 0.34034127 -0.02143603
000130 7c 12 db 3e 73 ce 46 3e ca 0e 85 3f 58 48 0d 3f
       0.4278754 0.19414692 1.0395138 0.5518851
000140 6e 0b 72 3e 4d 8d 50 3f 13 58 b6 3d 63 46 8b 3e
       0.23637173 0.8146561 0.089035176 0.27202138
000150 d4 02 01 bf 67 45 2f be bc 99 1a bf f4 7e 59 bf
       -0.5039494 -0.17116319 -0.6039083 -0.8495934
000160 c8 0f 42 3e 24 0a 33 3f 17 86 5e be a4 45 ac 3e
       0.18951333 0.6993735 -0.21730839 0.33646882
000170 29 f6 02 bf ea a5 c0 bd 6a fc 34 be 20 00 7e bf
       -0.5115686 -0.094066456 -0.17674413 -0.9921894
000180 a3 39 6d bf ad c4 63 bf a4 61 a1 3f 8a 91 e9 be
       -0.9266607 -0.8897198 1.2607923 -0.4561885
000190 1b ad 8b 3f d3 59 40 bd 7d df 6d 3f 86 72 8d bf
       1.0912203 -0.046960663 0.9291914 -1.1050575
0001a0 09 86 d0 bd e6 6c 82 bf 3d 35 8f 3f 46 66 76 bf
       -0.10181815 -1.0189483 1.1188122 -0.96249807
0001b0 e7 9a 22 3f 14 9c cf be 7c 92 7b 3e c4 ad 55 3f
       0.6351761 -0.40548766 0.24567598 0.8346827
0001c0 22 70 06 bd d2 49 48 be 81 bf 8e 3f 67 5d 33 be
       -0.032821782 -0.1955941 1.1152192 -0.17516099
0001d0 70 34 3c 3f 2d 49 88 bf d8 87 80 3f 80 60 18 bf
       0.73517513 -1.0647331 1.0041456 -0.5952225
0001e0 e3 4f 74 bf 58 cf 26 be cf 57 52 3f 36 40 1d bf
       -0.954344 -0.16290033 0.82165235 -0.61426103
0001f0 bc e7 17 3f b7 47 82 bf 4b 7d 7c 3f ac 52 78 bf
       0.59337974 -1.0178136 0.9862868 -0.9700115
